src/MetaHuman/Content/Scripts/Wangsss_qual_model.pth (torch, 15672 bytes, 9 tensors)

fc1.weight f4 [64, 5]
000000 0a 32 41 3d bd ad bc be fd 99 c2 be 8b ad 68 bd
       0.04716686 -0.36851302 -0.3800811 -0.05680613
000010 23 f5 7e 3e 39 c0 ac 3e 3d 12 8a 3d 00 82 be be
       0.248982 0.33740404 0.0674176 -0.37208557
000020 17 f4 77 be 2c aa 42 3e 7c e2 44 be 5c cd e1 3e
       -0.24214207 0.19010228 -0.19227022 0.4410199
000030 84 9c ed bd 38 32 73 bd 20 63 9d bc 74 8b 5a be
       -0.116021186 -0.059374064 -0.019212306 -0.2134226
000040 04 f6 c0 3e bc 08 07 3e e4 af 2d be 98 a1 fa bd
       0.37687695 0.13186926 -0.16961628 -0.12237853
000050 bd 50 67 be 3b 27 cc be dd 76 b1 be 91 0f 74 be
       -0.22589393 -0.3987368 -0.34660998 -0.23834063
000060 6c c0 9f bd a5 3b a4 3e ad 3d 0f 3e 2e 46 9a be
       -0.078003734 0.32076755 0.13988371 -0.30131668
000070 30 e4 f9 3e e9 30 14 3e 60 e9 cf 3c ba b7 af be
       0.48806906 0.14471783 0.025379837 -0.3431986
000080 ad 32 a9 be 9c e6 eb bd f0 2c bc be 60 72 c1 be
       -0.33046475 -0.115185946 -0.36753035 -0.37782574
000090 5c a3 28 be 26 2b 97 3e c4 85 04 3f 91 32 87 3d
       -0.16468567 0.29525107 0.5176661 0.06601442
0000a0 d0 56 85 3e 2b 13 21 3e 0f 4a 00 3d b0 bb df 3e
       0.26042795 0.15729968 0.031320628 0.43697882
0000b0 7b 64 38 3d e7 d5 9b be f2 05 81 3e 5f 29 cc bd
       0.0450177 -0.30436632 0.25199848 -0.099688284
0000c0 32 93 01 3e 33 70 9c 3e b9 49 a5 be fb 18 78 be
       0.12653807 0.3055435 -0.32282808 -0.2422828
0000d0 f8 2d 3b 3e 40 ad 9c 3b 82 ac 99 be 1f 55 82 3e
       0.18279254 0.004781395 -0.30014426 0.25455567
0000e0 51 91 20 3e a8 d4 c3 3e fd 22 fa 3e c7 9e 92 3e
       0.15680434 0.3824818 0.4885482 0.28636762
0000f0 ec a8 b1 3e aa 3d db 3e 36 2a d1 be fc f7 27 3e
       0.3469919 0.42820483 -0.40852517 0.16403192
000100 b8 e7 13 be 38 84 15 bd bf 5e ca be b2 48 a1 3e
       -0.14443862 -0.036503047 -0.3952541 0.31500775
000110 c0 af ae be e0 a2 41 bd f8 5b a1 bd 7c e1 72 3e
       -0.34118462 -0.04727447 -0.0787887 0.23718828
000120 90 b9 e4 bd c4 9d 37 3e e0 9d 9a bd 0d 49 00 3f
       -0.11168206 0.17931277 -0.075496435 0.50111467
000130 41 0d 38 3e df 99 e8 3e e0 a9 97 3b 45 ed b4 3e
       0.17973806 0.45429894 0.004628405 0.35337272
000140 a0 90 3c be 6b 82 89 be 94 85 a0 be 8b 33 9e be
       -0.18414545 -0.26857314 -0.31351912 -0.308987
000150 80 d9 cc bd 93 be 03 be ba 3d 59 be c4 44 2f be
       -0.10002422 -0.12865667 -0.21214953 -0.17116076
000160 75 9a b2 bd 2b 1c 8f 3e 70 65 9f 3c ee 2f 42 be
       -0.087208666 0.27951178 0.019457549 -0.18963596
000170 48 21 0d bd 18 73 b4 be f0 b0 13 bd b8 0f c1 3d
       -0.034455568 -0.3524406 -0.036057413 0.09426826
000180 1e 1c 07 be 2c 64 dc 3e ee 28 8d 3e 5f ad 77 be
       -0.1319432 0.43045175 0.2757029 -0.2418723
000190 b0 9b 7e 3d 6e ea 71 be c2 d7 be be e0 a8 69 3d
       0.062160194 -0.23624584 -0.37273985 0.057045817
0001a0 8d 79 b4 be 44 39 9f 3e 5f 95 4b be fc 35 80 3e
       -0.35248986 0.31098378 -0.198812 0.25041187
0001b0 32 ea 90 3e c8 83 9e 3e 48 22 85 3e 58 da d0 bd
       0.28303677 0.30959916 0.26002717 -0.10197896
0001c0 4c 7e de 3e 60 bd 0b 3e f6 7a 9f be 64 72 99 3e
       0.43455732 0.1364646 -0.311485 0.29970086
0001d0 fa bf e2 be b8 9a 1b 3d 28 35 a7 3e 60 f6 2d bc
       -0.44287091 0.03798935 0.32657743 -0.010617822
0001e0 dc b7 3e 3d 3d 3a ed 3e 48 98 99 be d1 fb e3 3e
       0.04656206 0.46333495 -0.29998994 0.44528058
0001f0 31 78 87 3e 8e a7 6f be 81 e7 59 3d 15 0a c2 3e
       0.26458886 -0.23403761 0.053199295 0.37898317
000200 49 6e 9c 3c 00 06 b0 3e 40 c0 e2 bb 08 9f af bd
       0.019095557 0.34379578 -0.0069198906 -0.08575255
000210 2e 3a 2e be 4c a2 99 be 88 9c a3 be 0c 08 3e 3e
       -0.17014381 -0.30006635 -0.3195536 0.18557757
000220 c0 06 bb 3b 1d 4a b1 be f0 7c 82 3c 97 94 51 be
       0.005707592 -0.34626856 0.015928715 -0.20466839
000230 d2 1a d3 3e 00 3f 41 bb 1c 3a b8 bd 7a 6d c0 3e
       0.412314 -0.0029487014 -0.089954585 0.37583524
000240 00 42 2d bc 49 4b 6d be a0 29 00 bc 60 22 2c 3e
       -0.010574818 -0.2317325 -0.007822424 0.16809988
000250 06 3d c6 3e f0 19 a5 bc bf 52 05 bf 5a e5 c5 be
       0.38718432 -0.02015397 -0.52079386 -0.38651544
000260 0c bf 31 be e6 09 ae bb 0c 85 d6 3e d4 4f 27 be
       -0.17358035 -0.0053112386 0.41898382 -0.16339046
000270 ac a2 16 be 48 1b 32 bd 6a 39 d7 be c7 6e 78 be
       -0.14710492 -0.04348305 -0.4203599 -0.24261008
000280 2a 20 8a be 30 4f 98 bd cd 20 b4 be f0 b3 74 3e
       -0.26977664 -0.07436979 -0.35181275 0.23896766
000290 b8 89 fb bd 35 ea 51 be 68 0a d7 3d 8c 6a a6 be
       -0.12282127 -0.20499499 0.10500032 -0.32503164
0002a0 2c d4 84 bd 9c d3 b1 bd 40 7d 7a 3e 5d c8 81 be
       -0.06485781 -0.086829394 0.24461842 -0.25348178
0002b0 79 b7 8e 3e 93 8a ce 3e b0 4a 84 3e a2 e4 43 bf
       0.27874354 0.403401 0.25838232 -0.7652074
0002c0 a1 bf 74 be 3c d7 bf 3c 0a 40 8a be 85 b3 c0 3e
       -0.23901226 0.023418061 -0.27001983 0.37636963
0002d0 8a aa a4 be 64 2c d5 bd 22 7c b1 3e a8 c6 f9 3d
       -0.3216136 -0.104088575 0.34665018 0.12196094
0002e0 a0 29 e9 bc 26 5a c7 be 68 7b 5f 3e 94 b4 58 3e
       -0.028462231 -0.38935965 0.2182442 0.21162635
0002f0 e0 33 27 bc 2a a4 bf be e1 1f bf be 02 ca 99 be
       -0.010205239 -0.37429935 -0.3732901 -0.30036932
000300 68 24 22 3b 12 1f c7 3d 62 2c 64 3e cf 4c 02 3d
       0.0024740938 0.09722723 0.22282556 0.03181153
000310 4e 9c 47 be 7d 5f ef 3e 42 29 8b 3e ff 8a b3 3b
       -0.1949322 0.4675254 0.27179915 0.005479216
000320 99 ab f4 be d1 a6 90 be 98 8b db be 72 ac 75 3e
       -0.4778717 -0.2825227 -0.4287994 0.23991564
000330 a9 86 53 3d 9c 35 bc 3e f8 c5 1c bd 58 8d 7a bd
       0.051642094 0.3675965 -0.038274735 -0.061169952
000340 40 6f 51 be 80 bf eb bb 48 04 0d bf 2a 56 05 bf
       -0.20452595 -0.0071944594 -0.5508466 -0.520846
000350 92 ff 8b 3e 50 5e d3 bd 4d 2b 86 3e a1 7d 88 be
       0.27343422 -0.10320723 0.2620491 -0.26658347
000360 42 4a 90 be 98 30 27 be 7c bd c8 3e 32 14 b8 be
       -0.28181654 -0.16327131 0.39207065 -0.35952908
000370 cf a4 e7 3e e1 ab 4c be 34 30 e4 3e 9a 55 c3 3e
       0.45242926 -0.19987442 0.44568026 0.38151246
000380 98 77 37 3d 80 11 19 3e e0 64 cf 3c 2c dc ce 3e
       0.044791788 0.14948082 0.025316656 0.40402353
000390 a8 09 c3 be 80 e7 a2 bb 3e a8 fc be 57 00 58 3d
       -0.38093305 -0.0049714446 -0.4934711 0.0527347
0003a0 97 e4 18 3e 14 bd 22 bd 0b 4f 57 3e a0 99 51 3c
       0.1493095 -0.0397311 0.21026246 0.012792975
0003b0 24 75 b7 be 9f f9 52 be 50 dc 86 3c 28 4a 93 be
       -0.3583156 -0.20603035 0.016462475 -0.28767514
0003c0 ea 35 6a 3d 09 b6 c1 3d 2f 14 64 be be ae 3c 3e
       0.057180323 0.094585486 -0.22273324 0.18426034
0003d0 06 64 4c 3e 38 11 b9 bd b0 ec d5 3d 3c 8a 1b be
       0.19960031 -0.09036487 0.10445535 -0.15189451
0003e0 e9 81 e3 be 58 2f d6 be f8 d9 07 3d 78 21 89 3e
       -0.4443505 -0.41832995 0.033166856 0.26783347
0003f0 48 f9 20 bd dc f3 8d 3e 8e 18 94 be 83 d2 b3 be
       -0.039300233 0.27725112 -0.28924984 -0.35121545

fc1.bias f4 [64]
000000 e3 56 6a be 63 d2 75 be 80 e9 ab 3e a0 e5 44 3d
       -0.22884707 -0.24006037 0.33576584 0.04807055
000010 f8 2f 52 bd e1 a7 65 be a0 e2 47 3e 98 20 f2 3e
       -0.051315278 -0.22427322 0.19520044 0.47290492
000020 41 3a 36 bd 17 31 89 be 78 05 bb 3d 1b 48 83 bc
       -0.04448915 -0.26795265 0.091319025 -0.016025594
000030 2c 36 1e 3e d2 a0 86 be c8 b6 41 3d 80 5b 0c 3f
       0.15450352 -0.2629457 0.047293454 0.5482712
000040 b4 0f a4 3e a5 a6 f2 3e 78 d5 03 3d f1 28 d9 be
       0.3204323 0.47392765 0.032186 -0.42414048
000050 72 37 a2 be 19 70 6c bd 08 a1 de 3e 79 24 5b be
       -0.31682926 -0.057724092 0.43482232 -0.21400632
000060 08 c9 ed bd 7c 5a b6 3e 54 ee d4 be c4 d1 05 3e
       -0.11610609 0.3561591 -0.4158808 0.130683
000070 fa 1f c9 3e 6e 5c 09 be 8c 63 40 3e 14 35 2e be
       0.3928221 -0.13414165 0.18787974 -0.17012435
000080 10 75 f4 bc 20 de 40 3e 12 ea bb bd 58 dc 7e be
       -0.029840976 0.18834734 -0.09175505 -0.24888742
000090 2a 66 05 be a2 70 dd be 78 58 91 be af a3 67 be
       -0.13027254 -0.43249995 -0.2838781 -0.22621034
0000a0 3f 00 5a 3e 0c d4 5b 3e 4b e3 05 bf fc d6 fc bd
       0.21289156 0.21467608 -0.52299947 -0.123456925
0000b0 5f c3 8b 3e 90 a7 f3 bd 96 94 49 be 79 0c dd be
       0.27297494 -0.118971944 -0.19685587 -0.43173578
0000c0 0e 24 fb be fc e9 45 3e d0 3e 5d 3e e0 a0 9c be
       -0.49050945 0.19327539 0.21605992 -0.30591488
0000d0 32 06 24 be 70 08 fa 3d a9 f7 b9 be be 38 bc 3e
       -0.16017988 0.122086406 -0.36321762 0.3676204
0000e0 e1 70 96 be 30 b6 c6 3e 87 81 20 3e 68 2f 02 be
       -0.29382995 0.38810873 0.15674411 -0.12713397
0000f0 f4 9c cb 3e d9 bc fe be 7e 21 7e be a0 ee 83 3e
       0.39768183 -0.49753454 -0.24817464 0.25767994

fc2.weight f4 [32, 64]
000000 45 aa 3e bd f5 65 ce bd f0 1c fa 3c 3a 54 93 bd
       -0.0465491 -0.100780405 0.030531377 -0.07193799
000010 86 c9 a0 3d 0a b3 98 bd a8 f1 48 3d 06 61 bd bd
       0.078509375 -0.07456024 0.049058586 -0.092470214
000020 dd 40 bc bc 08 5a 80 bd 88 9d 68 3d 00 af bd bd
       -0.022980148 -0.06267172 0.05679086 -0.09261894
000030 a4 23 98 3d 66 94 a8 bd 22 6e b2 bd 20 68 67 bd
       0.07428673 -0.0823143 -0.087124124 -0.056495786
000040 c0 25 d3 3b 15 f3 80 bd 08 f8 df 3d fc 8a 16 3d
       0.006443709 -0.06296364 0.1093598 0.03675364
000050 60 3c b8 bd 05 8c 88 3d 64 fd a4 bd e8 7f e1 bd
       -0.089958906 0.066673316 -0.08056143 -0.11010724
000060 a3 fb 9d 3d 87 b0 b1 3d d0 91 96 bc c0 32 5a bd
       0.077140115 0.08676248 -0.018380076 -0.053271055
000070 2a 29 aa bd 40 20 a3 3b c2 08 da 3d 86 19 a4 bd
       -0.08308633 0.0049782097 0.10646202 -0.08012681
000080 dc 41 f1 bd c0 46 ed 3b 6c 37 88 3d 6e f4 61 bc
       -0.1178014 0.0072411 0.06651196 -0.013791187
000090 8c 85 cd 3d 88 1f d1 bd 20 aa 7d 3d 89 4f ac bd
       0.10035238 -0.10211092 0.061929822 -0.084136076
0000a0 8e d6 50 bc 18 e9 b1 3d d3 e5 26 bd 00 20 06 3c
       -0.012746466 0.08687037 -0.04074652 0.00818634
0000b0 a6 59 b2 3d 7c 87 f7 bd 6d 1b 40 bc c0 74 8e 3d
       0.08708505 -0.120863885 -0.011725289 0.06955862
0000c0 02 2b ac bd a4 07 ca bd 1a 05 c7 3d f4 57 9a 3d
       -0.084066406 -0.098647386 0.0971777 0.07536307
0000d0 51 1c a2 bd 82 91 ed bd 52 c2 97 3d 78 f8 a7 3d
       -0.07915557 -0.11600019 0.074101105 0.082016885
0000e0 07 ac e4 3d 28 dd bf 3c cb 1b b1 3d 30 65 48 bd
       0.11165624 0.023420885 0.08647879 -0.048924625
0000f0 f6 8f bd bd e6 11 3c bc 32 51 99 3d 74 e4 ee 3d
       -0.09255974 -0.011478877 0.0748619 0.11664668
000100 f8 29 59 bd c0 ec 2e bc 7e 39 ff bd b8 66 b2 3d
       -0.05301854 -0.010676563 -0.12462138 0.08710998
000110 30 47 34 3d 5c e6 50 bd 78 9d c6 3d 7c 31 89 3d
       0.044013202 -0.051000938 0.096980035 0.066988915
000120 00 71 3b ba 54 1f 63 bd 10 85 3e 3c dc a4 29 bd
       -0.0007150322 -0.0554498 0.011628404 -0.041416988
000130 1e 02 c1 3d 30 f7 ba bc cc 90 4c 3d b8 a9 88 bc
       0.09424232 -0.022822946 0.049942777 -0.01668249
000140 c4 89 75 bd b8 65 79 3d 68 1b 99 bc 5c d8 e7 bd
       -0.059945837 0.060888022 -0.018689826 -0.11320564
000150 50 73 21 3d f0 5f 66 bd 62 42 be 3d d0 5d b9 3d
       0.03941661 -0.056243837 0.09290005 0.090510964
000160 06 73 9e bd c8 7c f3 bc 28 6e 54 bd 1e ca fa bd
       -0.07736783 -0.029722586 -0.051862866 -0.12245582
000170 a0 94 c9 3c d0 9a 71 3c ca 61 85 3d d0 b5 55 3d
       0.024607003 0.014746383 0.065127924 0.052175343
000180 d8 87 ea bd 46 13 8a 3d 30 18 21 3d 82 35 fb bd
       -0.114516914 0.06741957 0.039329708 -0.12266065
000190 28 e5 05 bd 32 a7 e0 bd 00 0f d9 bb 4c bb 27 3d
       -0.032689244 -0.1096939 -0.0066241026 0.040950105
0001a0 80 79 6a 3b 08 83 bf bc 3c cf ca 3d 0c 3a 07 bd
       0.0035777986 -0.02337791 0.09902808 -0.033014342
0001b0 f0 bd c6 3c d4 d8 9f 3d b8 06 ac bd aa 30 97 3d
       0.024260491 0.078050286 -0.08399719 0.07382329
0001c0 44 3f ae bd 2c cf 62 3d 7a 4d c8 bd 00 23 30 3a
       -0.08508161 0.055373356 -0.097804025 0.00067190826
0001d0 4e b8 81 bd 3c 6f 9c 3d 8a 1d b3 3d c0 ab e1 3b
       -0.063339815 0.07638404 0.087458685 0.0068869293
0001e0 18 c0 81 bd 68 88 41 bd ee db cc bd 40 2a 9b 3c
       -0.06335467 -0.047249228 -0.10002886 0.018941045
0001f0 74 fb 47 3d 60 b8 a0 bb 90 31 3d 3c b4 c3 db bd
       0.04882379 -0.0049047917 0.011547461 -0.10730687
000200 56 a6 01 3c 90 6b 60 bd a8 d6 be bd 10 29 14 bc
       0.007913193 -0.05479008 -0.09318286 -0.009042993
000210 e8 72 1a 3d 2c 03 2e bd 9c 0e 66 3d 07 f4 b1 bd
       0.03770724 -0.042483494 0.056166276 -0.08689123
000220 8e d6 69 bd c0 28 49 bd 64 69 a7 3d 26 ce 77 3d
       -0.05708938 -0.049111128 0.081743985 0.060499333
000230 94 c2 b5 3d 98 af 56 3d 00 80 25 b7 2d b3 78 3d
       0.088750035 0.052413553 -9.864569e-06 0.06071775
000240 68 58 81 bc ba 01 4c 3c 00 9a 52 ba e8 fd f0 3c
       -0.015789226 0.0124515835 -0.0008033812 0.029417947
000250 6a e9 98 3d f6 7d 45 3c 4e c5 95 3d 80 85 90 3d
       0.07466395 0.012053957 0.073130235 0.07056713
000260 8f e2 e2 bd 3c 48 e4 bd 60 36 97 3c 60 db f6 3b
       -0.11078369 -0.1114659 0.018458545 0.0075334758
000270 d6 8e a0 3d e0 cf 0a 3d 8f f8 da 3b 80 ee 08 3b
       0.07839744 0.03388965 0.0066824625 0.002089411
000280 e0 7d b7 3b 80 8c 0f bc 6f 1f 03 bd 63 42 9e 3d
       0.0055997223 -0.008761525 -0.0320124 0.07727506
000290 e8 14 ea bd 00 67 35 3a 1c 7e f8 bd f9 60 ea bb
       -0.11429769 0.000691995 -0.121334285 -0.0071526733
0002a0 d8 51 70 3d e8 21 b6 3d 29 c1 90 bb 50 45 dc 3c
       0.058671802 0.08893186 -0.0044175577 0.02688852
0002b0 a5 9a 14 bd 7c 73 18 bd 8c 6d 88 3c 30 42 4c bd
       -0.036280293 -0.03721951 0.016653799 -0.04986781
0002c0 39 ec fe 3d 90 bf 0e bc ae da a3 3d 50 fd 68 3d
       0.124474 -0.008712664 0.08000694 0.056882203
0002d0 13 10 41 bd 74 c6 e0 3d fe 88 b6 3d be ce ff 3d
       -0.04713447 0.10975352 0.08912848 0.12490605
0002e0 55 64 d6 bc 60 2f a3 3b 5e d8 70 bd c4 5f 3c 3d
       -0.026170889 0.004980013 -0.058800094 0.045989767
0002f0 f8 42 d0 3d b8 32 c8 3d 14 d5 77 bc 08 bf 9f 3d
       0.10169023 0.09775299 -0.015126485 0.07800108
000300 41 19 12 bb 44 fc 90 bd 5a d7 ce 3d 0c ed 96 3d
       -0.0022292885 -0.07079366 0.10099669 0.07369432
000310 fa f9 86 3d 7b 73 d9 3d 90 8c 48 3c 6f 72 20 3d
       0.06590648 0.10617729 0.012240544 0.039171632
000320 75 a1 44 bd 2e 6e 8b 3d 7a f5 85 3d 5a 00 b6 3d
       -0.04800554 0.068081245 0.065409616 0.08886786
000330 34 b7 89 bd d2 5f fe bd 7c 52 ce bd c8 c1 cb bc
       -0.06724396 -0.1242062 -0.100743264 -0.024872676
000340 a0 c0 8d bc e1 25 b1 3c 6e e2 83 3d 80 2d cc bc
       -0.017303765 0.021624507 0.064396724 -0.02492404
000350 80 85 9d 3a e3 59 4b bd 72 17 ac 3d 78 06 a0 3c
       0.0012017936 -0.04964627 0.08402909 0.019534335
000360 a1 fa 13 bc 5c 06 5c bc 08 67 8d bd 12 20 c9 3d
       -0.009031923 -0.013429251 -0.06904417 0.0982057
000370 ae d7 d8 bd 50 e8 72 3c 8c 17 38 3d 48 ed b5 3d
       -0.10588013 0.014825895 0.04494433 0.088831484
000380 3e 8c f2 bd fe 66 ed bd c5 f8 90 bd ed d1 03 be
       -0.11843155 -0.1159191 -0.07078699 -0.12873049
000390 60 ed 4a 3d 20 69 05 3c c5 ed 02 be ce c5 b3 3d
       0.049542785 0.00814274 -0.12786014 0.087779626
0003a0 ff 9c e4 bd 1c 95 eb 3d c5 e0 68 3d 46 79 d8 bd
       -0.11162757 0.1150305 0.056854982 -0.10570006
0003b0 96 45 69 3d 2c b9 08 bd 9e 1d 54 3d 5a 85 e7 3d
       0.056951128 -0.03337972 0.051786058 0.11304732
0003c0 de 0c 1f 3d 30 38 8a 3c d8 36 e9 bd 44 c2 28 bd
       0.03883063 0.016872495 -0.11387414 -0.04120089
0003d0 d8 2f 29 3d ee ba e2 bd 1b f2 af 3d 3f 4c 61 bd
       0.041305393 -0.1107081 0.085911 -0.055004355
0003e0 35 12 a6 3c 68 2a de 3d 5e 32 1a bd 48 4e 51 3d
       0.020272354 0.10847932 -0.03764569 0.051100045
0003f0 ec cb 35 bd a4 0c 50 3d c1 3d b4 3c a6 8a 46 3d
       -0.04438393 0.050793305 0.022002103 0.04847207

fc2.bias f4 [32]
000000 0e 52 97 3d 30 2c b4 bc 58 64 f0 bc 45 51 48 3d
       0.073886976 -0.021993726 -0.029344723 0.04890563
000010 92 8d db 3d 96 6c 84 3d f5 0c 03 3e c6 74 d6 bd
       0.10720362 0.064660236 0.12797911 -0.104714915
000020 00 e2 29 3d b0 e0 73 bd ee 82 20 be 3c 31 f3 3d
       0.041475296 -0.05954045 -0.15674946 0.11874625
000030 00 51 83 bc 22 42 db bd 06 20 91 bd 7c 59 d4 3d
       -0.016029835 -0.10705973 -0.07086186 0.1036863
000040 f8 a6 af bc d8 ce eb bd 4c 68 df bd f5 35 8c 3c
       -0.021441922 -0.11514062 -0.10908565 0.017115572
000050 0d 4c 71 3d 88 dc 9f bd e6 ad d9 bd 05 1a 89 3d
       0.05891042 -0.07805735 -0.106288716 0.06694416
000060 3e 52 c6 bd ce 0f 90 be 6c c0 20 bd 42 1f ec bd
       -0.09683655 -0.28137058 -0.039246008 -0.115293995
000070 18 1a 75 bd a2 fc 74 be 20 ec d7 bd 82 a1 3b bc
       -0.059839338 -0.23924497 -0.10543084 -0.011452081

fc3.weight f4 [16, 32]
000000 91 77 ca 3b a0 ce 8f bc 05 7c de bc ad 6f bd bd
       0.006178804 -0.017554581 -0.027158746 -0.09249816
000010 f6 00 b9 bd 13 c4 0b 3e 6d 6a 88 3b 00 c1 c8 ba
       -0.090333864 0.13649015 0.0041630776 -0.0015316308
000020 f7 56 0d 3e f7 52 82 bd 9a 8c 93 3d 34 d9 f4 bd
       0.13802706 -0.063634805 0.07204552 -0.11955491
000030 2a cc d4 3d 62 8b 03 3e 16 27 d0 3d 54 59 cc bd
       0.10390504 0.12846139 0.10163705 -0.099779755
000040 d0 a7 f7 bd 5a 0d 85 3d 16 70 df bd 33 c9 e8 3d
       -0.120925546 0.06496687 -0.109100506 0.11366501
000050 7d 59 23 3e 98 4e fe bd c6 77 87 3d a8 6b 31 3e
       0.15952106 -0.12417334 0.06614642 0.17326224
000060 a8 72 6c bd 93 3d 49 bc 1c 5d 31 be f2 58 e2 bd
       -0.057726532 -0.012282747 -0.17320675 -0.11052121
000070 bc 76 7f 3d 4a 1a c6 bc 9a 83 ec 3d ef 3b 12 be
       0.062369093 -0.024182457 0.115485385 -0.14280675
000080 a3 1c d9 3c 54 eb 1d 3d 40 1e 40 3c c1 6e 2d 3e
       0.026502913 0.038554505 0.011725962 0.1693678
000090 4e da ba 3d a8 34 63 3d ff e2 92 3d c0 41 80 3b
       0.091236696 0.05547014 0.07172202 0.003914088
0000a0 58 0c 58 bd 9e ec a8 3d 4b 8b ec bd a2 45 e0 3d
       -0.052746147 0.08248256 -0.115500055 0.109507814
0000b0 22 df e4 bd 09 7b f9 3d 44 a8 79 bd 40 6d 99 3b
       -0.11175372 0.1218167 -0.060951486 0.004682213
0000c0 a0 5b 8b 3c 60 28 48 3c 92 6d f5 3d 2e e0 32 3d
       0.017011464 0.012216657 0.119837895 0.043670826
0000d0 99 c8 e1 bd ae 52 03 be 30 6a 9b bc 0e c8 d7 bd
       -0.11024589 -0.12824509 -0.018971533 -0.10536204
0000e0 4e 3a 04 be 36 e9 21 be e0 3b c9 3c bf 79 eb bd
       -0.12912866 -0.15811619 0.024564683 -0.114978306
0000f0 fc d0 47 bd 14 19 a8 3d 1c 2c 00 be 19 89 9d 3d
       -0.048783287 0.08207908 -0.12516826 0.07692165
000100 f0 5a 2b be 5f 55 1d be 09 8d 19 3e c0 5c f0 3c
       -0.16733909 -0.15364598 0.14995207 0.029341102
000110 50 22 4a bd bf c9 21 be ff 65 19 be 9e 38 94 3d
       -0.04934913 -0.15799616 -0.14980315 0.07237361
000120 d1 ba e4 bd 50 10 6f 3d 48 ae 03 3d d0 48 d8 bd
       -0.11168445 0.058365166 0.03214863 -0.10560763
000130 3e 2d 00 be 94 c6 3a 3d e2 34 f9 3d 00 56 c7 3a
       -0.12517259 0.045599535 0.1216829 0.0015208125
000140 36 a9 ad 3d 00 7e 08 ba 0b b2 08 3e b0 ae d3 3c
       0.0847954 -0.0005206764 0.13349168 0.025840133
000150 76 b4 9a 3d d2 3b c6 3d 20 a3 de 3b ac d3 d4 bd
       0.075539514 0.096793786 0.0067943484 -0.10391936
000160 c0 22 40 3b e9 f4 07 be a0 c2 88 bc e5 62 20 be
       0.0029317588 -0.1327702 -0.016694367 -0.15662725
000170 53 37 18 be 50 b9 71 bc 51 1a 13 3e 58 9e f1 bd
       -0.14864855 -0.014753655 0.14365508 -0.1179778
000180 83 cb 08 3d e6 ba e5 bd 02 9f 06 be fc 18 08 3c
       0.03339721 -0.11217289 -0.13146594 0.008306738
000190 40 4e fd bc e2 32 2f be e5 15 9a 3b 82 61 e0 bd
       -0.030921102 -0.17109254 0.004702317 -0.10956098
0001a0 2a 6c ed 3d b2 1f 9a bd 1c cc c8 3d ca d9 b8 3d
       0.11592896 -0.07525577 0.09804556 0.09025915
0001b0 88 c5 8c 3c 62 9f 3b bd d3 1e 9a bd 74 4e f9 bd
       0.017184034 -0.045806296 -0.075254105 -0.12173167
0001c0 e8 13 37 3d c5 26 c8 bd 80 00 f3 3c 4d d9 28 3d
       0.04469672 -0.0977302 0.029663324 0.04122286
0001d0 77 47 be bd 22 4d fe bd 70 19 aa bd 0f 78 09 3c
       -0.092909746 -0.12417056 -0.08305633 0.008390441
0001e0 46 b7 bf 3d a9 4f dd 3d 22 74 ef bd 20 96 f9 bb
       0.093611285 0.108062096 -0.116920725 -0.0076167732
0001f0 57 b0 21 3e 72 46 2c 3e 32 7d 9a 3d 3d c4 7a bd
       0.15789925 0.16823748 0.0754341 -0.061222304
000200 7c 16 84 bd b4 15 8a bd 96 a2 03 be c9 24 00 be
       -0.06449601 -0.06742421 -0.1285499 -0.12514032
000210 a6 d3 9b 3d 89 e2 1b 3e e6 42 06 be 60 7e 9d bc
       0.07608728 0.15223135 -0.13111457 -0.0192253
000220 05 4c 10 be 57 7a 00 3e 75 f1 d4 ba be c0 d3 3d
       -0.14091499 0.12546669 -0.0016246276 0.10339497
000230 84 7d 02 bd 8d 5c 19 be 13 19 ba bd 0f 8d ce bd
       -0.031857982 -0.14976712 -0.09086814 -0.100854985
000240 3a bc ec 3d ee 20 e3 3d d3 c7 89 bd 65 19 30 bd
       0.11559339 0.11090265 -0.067275666 -0.042992968
000250 02 c8 1c 3e 50 7e 2a bc 60 4a 4a 3c 85 3d f1 3d
       0.15310672 -0.010406092 0.012346834 0.11779312
000260 9d 5d df bd e0 6a a5 3d ba f0 ee 3d 52 4b 17 be
       -0.10906527 0.080770254 0.11667009 -0.14774826
000270 c0 e0 85 3b b7 f5 11 be 50 34 22 3c 56 bf ad 3d
       0.00408563 -0.14253889 0.009900168 0.0848376
000280 1d db df bd 78 00 21 be a0 df 08 bc 30 dc 61 3d
       -0.109304644 -0.15722835 -0.008354098 0.055141628
000290 92 0a 5a bd 00 7f 5f ba fd 47 a9 bd c4 b8 36 bd
       -0.053232737 -0.00085256994 -0.08265684 -0.0446098
0002a0 87 51 e3 bd 38 a2 63 bd 15 a0 d0 bd f0 5b aa bd
       -0.110995345 -0.055574626 -0.10186783 -0.08318317
0002b0 f0 b3 c9 bc 7e 66 e5 3d fd 09 bd bd 3c c4 36 bd
       -0.024621934 0.112011895 -0.09230421 -0.044620737
0002c0 00 97 40 3d f0 52 61 3d 16 a0 1f be 83 80 a5 bd
       0.047019005 0.055010736 -0.15588412 -0.08081152
0002d0 50 8c 3d bd a4 80 bd bd 00 57 78 bd de 56 ce 3d
       -0.04627639 -0.09253052 -0.060629845 0.10075162
0002e0 ab 0e 25 be 80 72 cc 3c 1a 6b 9f 3d a0 01 fd bb
       -0.16118877 0.024956942 0.077841 -0.007721141
0002f0 a0 92 b1 3b c3 48 27 3e 9a 17 ad 3d e0 7c 05 be
       0.0054190904 0.1633635 0.08451767 -0.13035917
000300 80 e8 05 be 10 90 69 bd b7 ca 68 bd 1f ab dc bd
       -0.13076973 -0.057022154 -0.05683395 -0.10774826
000310 4f b5 29 3e 75 3d 2c 3e 80 17 c0 3d 88 4b 93 3c
       0.1657307 0.16820319 0.09379482 0.017980352
000320 58 5b 02 be bf f8 08 be 9c c5 29 3e 7a e3 99 3d
       -0.12730157 -0.13376139 0.16579288 0.07514091
000330 f0 82 46 bc bb 6d b2 3d 1c 8f e8 bd 86 99 05 be
       -0.012116179 0.08712336 -0.11355421 -0.13046846
000340 15 2f 0a 3e a8 26 db bc d0 cd 4a 3d 8b d9 3f 3d
       0.13494523 -0.026751831 0.049512684 0.046838325
000350 4d 7a 07 3e 71 b8 07 be 7b 4c 02 be af 3e 2e bd
       0.13230248 -0.13253953 -0.12724487 -0.04254025
000360 1c c5 40 3d 69 53 b5 bd 1e 02 f2 3d 35 91 d7 bd
       0.04706298 -0.088538 0.1181681 -0.10525743
000370 74 d9 e6 bd d2 66 16 3d 68 d5 4c 3d a3 69 df 3d
       -0.11271945 0.03671915 0.050008208 0.109088205
000380 d3 36 85 bd 66 87 85 3d 95 75 9c 3d 9e f3 0b 3e
       -0.065045975 0.06519966 0.076396145 0.13667151
000390 c4 10 64 bd 31 ff c3 bd d6 dc 1d 3e f2 28 f7 3d
       -0.05568005 -0.09570158 0.15416273 0.120683566
0003a0 64 3a 1e be 07 e1 d0 bd cc 8f 2a be 60 a3 ac bb
       -0.15451962 -0.101991706 -0.16656417 -0.0052684993
0003b0 a8 19 30 3d ff 19 20 bb ea 06 09 be e0 3b d7 bb
       0.042993218 -0.0024429557 -0.13381544 -0.006568417
0003c0 26 e0 11 be e6 ab c6 3d bc e3 73 3d f5 94 9c ba
       -0.14245662 0.09700756 0.059543356 -0.0011946248
0003d0 59 c3 08 3d aa 6c ed bd 30 33 83 3d 00 67 a9 bd
       0.033389423 -0.11592992 0.064062476 -0.08271599
0003e0 b2 4e d6 3d f9 76 04 3e 5d a8 1d 3e 0e 76 96 3d
       0.10464229 0.1293601 0.15396257 0.07346736
0003f0 b1 1a 1d be e4 5d 1d 3d 66 88 e9 bd 91 1a d7 3c
       -0.15342213 0.03841962 -0.11402969 0.026257785

fc3.bias f4 [16]
000000 53 52 77 3e 79 45 f0 3d 11 94 11 be 58 66 58 be
       0.24152498 0.11732001 -0.14216639 -0.21132791
000010 9d fc 95 be e0 2e a7 bb eb e5 d8 3d 7c 1f 3e 3d
       -0.2929429 -0.0051020235 0.10590728 0.046416745
000020 2e af 88 3d 62 82 38 3e db 00 e0 bd d3 a8 b9 be
       0.06674038 0.18018487 -0.10937663 -0.36261615
000030 bf 74 e4 bd 3e 82 27 be e3 c5 5a bf 47 ed 7a 3d
       -0.1115508 -0.16358277 -0.854582 0.06126144

fc4.weight f4 [8, 16]
000000 3a d9 01 3e ce 43 21 3e 18 31 d8 bd 7c 84 80 bd
       0.12680522 0.15748522 -0.10556239 -0.062752694
000010 e3 a6 6e 3e 10 a1 1d bd 4e ce a1 3d bd 7d c3 3b
       0.2330585 -0.03848368 0.079006776 0.005965917
000020 68 c8 5f 3e 5c 09 5d 3c e2 9d 50 be 4d f7 79 3e
       0.21853793 0.013491001 -0.20372728 0.24410744
000030 b0 1d 50 bd fc 4c b8 bd e0 14 69 be 43 3d e2 3d
       -0.050809562 -0.089990586 -0.2276187 0.11046841
000040 85 2b 4b 3e 6a 9e 5d be d4 e8 ea 3d 47 f6 b6 3c
       0.1984082 -0.21642461 0.1147019 0.022334231
000050 e5 f3 49 3e 40 eb e1 bd 24 72 49 bd 39 4c 0c be
       0.19721945 -0.110311985 -0.04918112 -0.13700952
000060 c0 12 4a 3e 3e 6e d3 bd 89 de 58 be 05 d7 53 3e
       0.19733715 -0.103237614 -0.2117864 0.20687492
000070 34 7b f1 3d 5c 1f 23 3e a5 b8 96 3d 09 9d 2a 3d
       0.11791077 0.15929931 0.07359437 0.041653667
000080 49 df 7e 3e c6 67 1a be 4c c6 4b be e4 d5 8f 3c
       0.24889864 -0.15078649 -0.19899863 0.017558046
000090 7e b4 4c 3d 3e da 0e 3e ae 20 df 3d 06 df 1f be
       0.04997682 0.1395044 0.10894905 -0.1561242
0000a0 64 9c bd 3d 93 17 01 3a ea 2e da 3d 28 a9 1a be
       0.09258345 0.00049244723 0.106534794 -0.1510359
0000b0 84 da 2b 3e 60 87 59 be 7a ea f6 3c 09 03 87 bd
       0.16782576 -0.21243048 0.030141104 -0.06592376
0000c0 c6 8d a0 3b de 6d 11 3e fa f0 60 3e f2 d6 24 be
       0.004899713 0.14202067 0.21966925 -0.1609762
0000d0 e5 77 eb 3d 56 41 77 3e 35 1e 3b bd 7d 11 0c 3c
       0.114974774 0.24146017 -0.045683105 0.008549091
0000e0 52 be 4a be 9d 1c 3d 3a 17 24 5d 3e 5c f9 60 3e
       -0.19799164 0.00072140415 0.21595798 0.21970123
0000f0 00 f5 4e be 90 40 c7 bd 02 c9 d8 3d bb e0 5f be
       -0.20210648 -0.09729111 0.10585214 -0.21863072
000100 0d 8b 2b 3e a8 cb 41 3e 0a c4 60 3e 54 66 5e be
       0.16752262 0.18925345 0.21949783 -0.21718723
000110 34 cc c9 3c 60 05 da 3d 66 5a 04 3d 54 94 5b be
       0.024633504 0.106455564 0.032312773 -0.21443301
000120 28 2d 9e 3d 7c 68 3f 3e fe 51 2c bc d8 3d 0c 3e
       0.077234566 0.18692201 -0.010517595 0.13695467
000130 e4 c1 11 3e dc cd 02 be ca f0 e9 bc 07 66 9a bc
       0.1423412 -0.12773842 -0.0285572 -0.018847479
000140 19 d0 36 be c0 36 6f 3e d4 aa 73 3e b1 86 70 be
       -0.1785282 0.23360729 0.23795635 -0.2348888
000150 0e 7e c6 bc f6 0f 0d be 06 09 34 be f1 3b 6b 3e
       -0.02423003 -0.1377562 -0.17581567 0.22972085
000160 0c 99 9b 3d 86 11 6f 3e 9a 3c 3c 3e ca 5b 77 3e
       0.07597551 0.23346528 0.18382493 0.24156108
000170 c8 7e fd 3d 70 8e d3 bc 66 b0 6d be a5 3d c5 3d
       0.12377697 -0.025824755 -0.23211822 0.096308984
000180 67 e0 7e 3e 8b 04 6f be e4 86 b7 bd f6 45 4e be
       0.2489029 -0.23341577 -0.08961275 -0.20143875
000190 22 62 49 3e 68 fc ca bd 76 21 1c 3e de dd 48 3e
       0.19666341 -0.09911424 0.1524714 0.19615886
0001a0 ac d8 1c be 72 9b 1b be 5a 21 83 bc 85 ef 2c 3e
       -0.15317029 -0.15196016 -0.016007114 0.16888244
0001b0 f0 ac 21 bd 1a 0f 0c be 6c 78 85 3e 6a 47 08 3e
       -0.039471567 -0.13677636 0.26068437 0.13308492
0001c0 d6 43 fa bd 20 29 4e 3e 08 84 46 3e e8 5c 62 3e
       -0.1221997 0.20132875 0.19386303 0.22105753
0001d0 f4 e0 5e 3e 1c 0b 48 be 34 54 9e bd e5 d1 52 be
       0.217655 -0.19535488 -0.07730904 -0.20587881
0001e0 98 9b a9 3d a2 41 92 bd 61 00 b9 bc 6b b6 09 3d
       0.0828163 -0.07141425 -0.022583188 0.033621233
0001f0 ba 75 45 be 90 60 8c 3d 10 42 cc bc d3 7a 17 be
       -0.1928319 0.06854355 -0.024933845 -0.14792947

fc4.bias f4 [8]
000000 20 66 3f 3e 48 3e 17 be 60 cb f4 3e ab 5d 09 be
       0.18691301 -0.14769852 0.47811413 -0.13414638
000010 65 e2 d1 3e 5c ba 0b 3e 51 6b c5 be 66 88 66 3d
       0.40993038 0.13645309 -0.38558438 0.056282423

fc5.weight f4 [1, 8]
000000 bf 52 b6 3d 1b e8 91 be 0f 77 05 3e e2 4b 90 be
       0.08902501 -0.28497395 0.13033698 -0.28182894
000010 b8 f0 a2 3e 82 29 b0 3a 94 e4 b5 bd 73 aa a7 be
       0.3182428 0.0013440105 -0.088814884 -0.3274723
