src/MetaHuman/Content/Scripts/Wangsss_time_model.pth (torch, 15672 bytes, 9 tensors)

fc1.weight f4 [64, 5]
0	0xbea11432	-0.3146072
1	0xbd5eb560	-0.05437219
2	0x3e7504f0	0.23927665
3	0x3dac4000	0.084106445
4	0xbe160f98	-0.14654386
5	0x3e9b7936	0.30365914
6	0xbea37efe	-0.31932825
7	0x3ec0e806	0.3767702
8	0x3e48ebfc	0.19621271
9	0xbe2769ce	-0.16348955
10	0x3ee365d4	0.44413626
11	0xbc795380	-0.015217662
12	0x3d945900	0.07243538
13	0x3eb98366	0.36233062
14	0xbe182962	-0.14859536
15	0x3ea7e5fc	0.32792652
16	0x3e875a84	0.26436245
17	0xc009e0ff	-2.1543577
18	0x3f19b032	0.6003448
19	0x3de05696	0.10954015
20	0x3e6225d0	0.22084737
21	0x3e6ac6ac	0.2292735
22	0xbe8ada4c	-0.27119672
23	0x3e5ae898	0.2137779
24	0xbc8e8500	-0.017397404
25	0xbe491c3c	-0.19639677
26	0xbdaf1914	-0.08549705
27	0xbe86467e	-0.26225656
28	0x3db2c570	0.087290645
29	0xbec15998	-0.37763667
30	0x3d39ab99	0.045329664
31	0x3f8196ad	1.0124108
32	0xc07e5fe2	-3.9746022
33	0x3ef8db15	0.48604646
34	0x3edbd077	0.42932484
35	0x3e881f85	0.26586547
36	0xbd3e4409	-0.046451602
37	0x401a0863	2.406762
38	0x3ea291f5	0.3175198
39	0x3e401458	0.1875776
40	0x3f5ae17c	0.8550031
41	0x3ff11bc2	1.8836596
42	0xc03c4740	-2.9418488
43	0x3f4f8f4e	0.8107804
44	0x3ea559c5	0.3229505
45	0xbf2c979f	-0.67418855
46	0x3e847b8f	0.25875518
47	0xc0157b0f	-2.335636
48	0xbf1eaf98	-0.61986685
49	0x3d3861f2	0.045015283
50	0x3d6b501f	0.057449456
51	0xbf06b9fa	-0.5262753
52	0x40235ad7	2.5524194
53	0x3e82b404	0.25527966
54	0x3ec8f1ba	0.39246923
55	0xbf751801	-0.9573975
56	0xbecbca85	-0.39802948
57	0xc01e2f1c	-2.4716253
58	0xbecd3a5c	-0.40083587
59	0x3eba6b25	0.3640987
60	0x3f457fde	0.77148235
61	0x3f153309	0.58281
62	0x3fc3553a	1.5260384
63	0x3f021f48	0.5082898
64	0x3eb4d918	0.3532188
65	0xbc974150	-0.01846376
66	0xbdcd8690	-0.100354314
67	0xbd9b06e0	-0.07569671
68	0x3e96b3fe	0.29434198
69	0xbea0d767	-0.3141434
70	0xbf1817cf	-0.5941133
71	0xbf305808	-0.68884325
72	0x3fe31943	1.7742084
73	0x3d1faf81	0.038985733
74	0x3ebe6e63	0.37193593
75	0xbd375338	-0.044757098
76	0x3e8d2c06	0.2757265
77	0xbea5aacc	-0.3235687
78	0xbd235420	-0.03987515
79	0xbc8bd600	-0.017069817
80	0xbe29bfab	-0.16577022
81	0x3e5565da	0.20839635
82	0xbfbe9f99	-1.4892455
83	0x3ecdc237	0.40187237
84	0x3ea5b7a7	0.32366678
85	0xbd9f000c	-0.07763681
86	0xbea9a479	-0.33133295
87	0x3ea7f3d8	0.32803226
88	0x3e50ed20	0.20402956
89	0xbe3a55d8	-0.1819681
90	0x3e9a9648	0.3019278
91	0x3f632174	0.8872292
92	0xc0247678	-2.5697308
93	0xbe4a1fa9	-0.1973864
94	0x3e545c27	0.20738278
95	0x3e24caf4	0.16093045
96	0xbe08b836	-0.13351521
97	0x3ed890ba	0.42297918
98	0x3e0cf3bc	0.13764852
99	0xbe9f0682	-0.31059653
100	0xbe274e8c	-0.16338557
101	0xbf7087d1	-0.9395724
102	0x4015edb5	2.3426335
103	0xbe034f50	-0.12823224
104	0x3e971863	0.29510793
105	0x3e3a41bc	0.18189138
106	0x3e0b53f8	0.1360625
107	0x3dc893a8	0.09793788
108	0x3c9ed080	0.01938653
109	0xbe3587a8	-0.1772753
110	0x3e4d24e0	0.20033598
111	0x3deb06d0	0.11475909
112	0x3c6ae280	0.014336228
113	0xbed58cf3	-0.41709098
114	0xbed96b36	-0.42464608
115	0xbdbfd9a4	-0.093676835
116	0xbe1ac9e0	-0.15116072
117	0x3eaaf65a	0.33391076
118	0xbec996e2	-0.39372927
119	0xbddb6030	-0.10711706
120	0x3db59948	0.08867127
121	0x3e982818	0.2971809
122	0x3e4983e8	0.19679224
123	0x3e362cdc	0.1779055
124	0xbdad5a28	-0.084644616
125	0x3eeab3e0	0.4584036
126	0x3f8be21e	1.092838
127	0xc043a7ba	-3.0571122
128	0xbe1a4800	-0.15066528
129	0x3d817156	0.06320445
130	0x3e81a2d0	0.2531953
131	0xbdea1198	-0.11429137
132	0x3e6c4698	0.23073804
133	0x3ee2d51c	0.44303215
134	0xbeb0ede0	-0.34556484
135	0xbe957c93	-0.29196605
136	0xbff11cd2	-1.883692
137	0x4092f2c9	4.592137
138	0x3b025ce1	0.0019891786
139	0x3e46d303	0.19416432
140	0xbe63ffed	-0.22265597
141	0xbeebfa00	-0.46089172
142	0x3f5d8c79	0.8654247
143	0xbf08d06a	-0.53443015
144	0x3e9cea8a	0.3064769
145	0xbe939553	-0.28824863
146	0x3de9fe50	0.114254594
147	0x3cb4b050	0.022056729
148	0x3e8c5184	0.2740594
149	0xbe850e16	-0.2598731
150	0xbd5c77f8	-0.05382535
151	0xbdecd948	-0.115648806
152	0xbe8f4a72	-0.27986485
153	0xbeba9820	-0.36444187
154	0xbe32ad78	-0.17448986
155	0x3df24950	0.118303895
156	0xbf822065	-1.0166136
157	0x4023cc33	2.5593383
158	0xbeeb8979	-0.4600332
159	0x3ebe51f8	0.37171912
160	0xbd280292	-0.041018076
161	0xbf564e1c	-0.83712935
162	0x40448f28	3.0712376
163	0x3d088c17	0.033336725
164	0x3ecb5303	0.3971177
165	0x3e6ee592	0.23329762
166	0xbe3b057c	-0.18263811
167	0x403c401c	2.941413
168	0x3ec04a26	0.3755657
169	0x3e07fa61	0.13279106
170	0x3ef3c4ec	0.47611177
171	0xbf4b384f	-0.79382795
172	0x40523092	3.2842145
173	0x3ecdab28	0.40169644
174	0x3cbff494	0.023432054
175	0x3ee3b520	0.44474125
176	0xbd3b4238	-0.045717448
177	0x3d8247e0	0.06361365
178	0xbe6913c8	-0.22761452
179	0xbedc3977	-0.43012592
180	0x3ed91d8d	0.42405358
181	0x3f6f7d17	0.93550247
182	0xc02757c2	-2.6147313
183	0x3ede4775	0.43413892
184	0x3e5d564f	0.21614955
185	0x3c9b45b0	0.018954128
186	0xbed074ce	-0.40714115
187	0xbe9b3bfc	-0.30319202
188	0xbec45d85	-0.383526
189	0xbe2f5a16	-0.17124209
190	0x3e821da1	0.2541323
191	0xbebe7b25	-0.37203327
192	0x3fdeb6f0	1.7399578
193	0xbed07ea7	-0.40721628
194	0x3e907b0e	0.28218883
195	0xbee3d783	-0.4450036
196	0xbdafc8f4	-0.08583251
197	0xbe11c9b6	-0.14237103
198	0xbd84ef90	-0.064910054
199	0xbe93f860	-0.28900433
200	0x3e30c5e4	0.1726299
201	0x3e3734a4	0.17891175
202	0x3e67f75c	0.22652954
203	0xbe7649f2	-0.24051645
204	0xbecc667e	-0.39921945
205	0x3c6ea6f5	0.014566173
206	0xbe66796d	-0.22507258
207	0x404ab5da	3.1673493
208	0x3ebeb240	0.3724537
209	0x3d439acd	0.04775505
210	0xbf3d992a	-0.74061835
211	0xbee29bd5	-0.44259515
212	0xbfd57d3d	-1.6678845
213	0xbe923e0f	-0.28562972
214	0x3e7459ff	0.23862456
215	0x3dea52a8	0.11441547
216	0xbeb2ccdb	-0.34921917
217	0x3e706190	0.23474717
218	0x3e8c6c1a	0.27426225
219	0xbed56028	-0.41674924
220	0xbbba9c40	-0.005694896
221	0x3ea2911a	0.3175133
222	0x3ccfb9d0	0.025357157
223	0xbed27957	-0.411082
224	0xbeafa515	-0.34305635
225	0x3eaf775a	0.34270746
226	0x3eca846e	0.3955416
227	0xbe8276d6	-0.2548129
228	0xbea18d50	-0.31553125
229	0xbea04bf6	-0.31307954
230	0xbec9310b	-0.3929523
231	0x3dae2f80	0.08505154
232	0x3e568528	0.20949233
233	0x3ea5a07e	0.32349008
234	0xbead12cb	-0.338034
235	0xbe475b7a	-0.1946849
236	0xbf822959	-1.0168868
237	0x4066e3d7	3.6076562
238	0xbd96e96f	-0.07368743
239	0x3e69be77	0.22826563
240	0x3d87b058	0.06625432
241	0x3ed41920	0.4142542
242	0x3d9b8298	0.07593268
243	0xbe8c86dc	-0.2744664
244	0xbec86504	-0.3913957
245	0xbe004e7c	-0.1252994
246	0x3e3fe76c	0.18740624
247	0xbe48b986	-0.19602022
248	0xbe2f34cc	-0.17109984
249	0xbea13338	-0.3148439
250	0x3dbb6760	0.091505766
251	0xbed27e78	-0.41112113
252	0x3e1272a0	0.14301538
253	0xbd133c20	-0.03594601
254	0xbe77cf18	-0.24200094
255	0x3eb25bce	0.34835666

fc1.bias f4 [64]
0	0xbebcdd1a	-0.36887437
1	0x3ca42a70	0.020039767
2	0x3e9532b8	0.29140258
3	0x3eb7b992	0.35883766
4	0x3ed39446	0.4132406
5	0xbd551ce0	-0.05202949
6	0x3f92a961	1.145794
7	0xbec02c25	-0.3753368
8	0x3fc37059	1.5268661
9	0x3f169780	0.5882492
10	0xbf80351a	-1.0016205
11	0xbf1eca63	-0.6202757
12	0x3ec1f436	0.3788163
13	0xbdeea810	-0.11653149
14	0xbfa88b75	-1.3167559
15	0x3e04f764	0.12984997
16	0x3f3e0af4	0.74235463
17	0xbedc7bc9	-0.4306319
18	0x3f6860fe	0.90773
19	0xbecf18d8	-0.40448642
20	0xbe57ddbb	-0.21080677
21	0x3eb31246	0.3497488
22	0x3e03ee5c	0.12883896
23	0x3e2bd830	0.16781688
24	0x3edf1dc0	0.43577385
25	0x3f2dc56c	0.67879367
26	0xbdfbef5c	-0.123015136
27	0xbfa2f1f8	-1.2730093
28	0xbf34bed3	-0.70603675
29	0xbeab4166	-0.33448333
30	0x3eb05154	0.34437048
31	0xbf8d2a6b	-1.102857
32	0xbef71edd	-0.48265734
33	0x3db83ee5	0.08996371
34	0xbe0cd9f8	-0.13755023
35	0xbb1b7b00	-0.0023724437
36	0x3eed664e	0.46367115
37	0xbee4290d	-0.4456257
38	0xbf6bd47e	-0.9212111
39	0xbe9a37b9	-0.30120638
40	0xbd7d5d38	-0.06185648
41	0xbf45c6b4	-0.7725632
42	0xbcd0183a	-0.025402177
43	0x3ecba454	0.3977381
44	0x3ede0082	0.43359762
45	0x3ebcc5a0	0.36869526
46	0xbeb495be	-0.35270494
47	0xbf732f5f	-0.9499416
48	0x3ecbbade	0.39791006
49	0xbe5fbe6f	-0.21849988
50	0xbd546608	-0.051855117
51	0xbe659c02	-0.22422794
52	0x3ea23f7b	0.31689057
53	0x3e8dd078	0.27698112
54	0xbed153d4	-0.40884268
55	0x3ee085ca	0.43852073
56	0xbdf66157	-0.12030285
57	0xbf6170d6	-0.880628
58	0x3f906451	1.1280614
59	0xbe04f6be	-0.1298475
60	0xbe293326	-0.16523418
61	0xbe346286	-0.17615709
62	0x3f5c7f69	0.8613191
63	0x3c758da0	0.014987379

fc2.weight f4 [32, 64]
0	0x3dc5d098	0.09658927
1	0x3ce628d8	0.028095648
2	0xbdd304fe	-0.103036866
3	0xbd46ed3b	-0.048566084
4	0xbd8387ac	-0.06422362
5	0xbd584bf0	-0.052806795
6	0x3ab3f128	0.0013728486
7	0xbbd1ee54	-0.0064065848
8	0xbda21a6b	-0.07915195
9	0xbd3a447d	-0.04547547
10	0x3bce45c5	0.0062949383
11	0x3de5f1e0	0.112277746
12	0x3d6153f2	0.055011697
13	0xbd8c7f24	-0.06860188
14	0x3dceefde	0.10104345
15	0x3d9adcd6	0.07561652
16	0xbd77ae58	-0.060469
17	0x3a495600	0.00076803565
18	0x3ca81bd7	0.020521088
19	0xbdabce3c	-0.083889455
20	0xbe06781c	-0.13131756
21	0x3db590ac	0.088654846
22	0x3c022800	0.007944107
23	0xbcabc720	-0.020968974
24	0x3ce1d2f0	0.027566403
25	0x3de7ff4d	0.11327992
26	0x3df7d75a	0.12101622
27	0xbd325e60	-0.043547034
28	0xbc9e7a0f	-0.019345311
29	0xbdd3fbb8	-0.10350746
30	0xbdfc58f2	-0.123216525
31	0xbceb6e1a	-0.028739024
32	0x3da5ce8b	0.080960356
33	0xbd3cd1dc	-0.046098575
34	0xbe39c92e	-0.1814315
35	0xbdee5592	-0.11637415
36	0x3d6504c2	0.05591274
37	0x3d6ff370	0.05858177
38	0x3ca0d1b9	0.019631254
39	0xbcd9af10	-0.026572734
40	0x3d94ec4a	0.07271631
41	0xbdbea907	-0.09309583
42	0x3df1bf5c	0.11804077
43	0x3df3a3dc	0.11896488
44	0x3d90e296	0.07074468
45	0x3c4d0cf0	0.012515292
46	0x3dd96a34	0.1061596
47	0x3dbe61cb	0.09295996
48	0xba904280	-0.0011006147
49	0xbde2a146	-0.11065917
50	0xbd88b610	-0.06675351
51	0x3d294fbd	0.04133581
52	0xbcc9b73f	-0.024623511
53	0xbd1887b4	-0.03723879
54	0x3dd84bb2	0.10561313
55	0x3dc027d0	0.09382594
56	0x3d761b41	0.060084585
57	0xbdc67237	-0.096897535
58	0xbd941a3a	-0.07231565
59	0x3ddc1e7a	0.107480004
60	0x3d03f524	0.032216206
61	0x3bb378e0	0.005477056
62	0x3e041fc2	0.1290274
63	0xbde6afe8	-0.1126402
64	0xbd1fd150	-0.039017975
65	0xbda679c4	-0.08128694
66	0xbd26ba88	-0.040705234
67	0x3d4f2074	0.05056806
68	0xbd279040	-0.040909052
69	0x3ca251c0	0.019814372
70	0x3dedb1f0	0.116062045
71	0x3de468ec	0.11152825
72	0x3b6bcd00	0.0035980344
73	0x3d1b0d38	0.037854403
74	0xbdcb073e	-0.09913491
75	0xbdea202a	-0.11431916
76	0xbb94f180	-0.0045453906
77	0xbc1e93b0	-0.009678766
78	0x3d5506bc	0.052008376
79	0x3d79dc84	0.061001316
80	0xbd925ce0	-0.07146621
81	0xbd9d6b72	-0.07686509
82	0x3ddbbfa2	0.107299104
83	0xbd85aa16	-0.06526582
84	0xbd6629e8	-0.05619231
85	0xbd190250	-0.03735572
86	0x3da6b1ac	0.08139357
87	0x3cac8868	0.021061137
88	0x3d7465b4	0.059667304
89	0x3ddd162e	0.10795246
90	0xbb2b7c40	-0.0026166588
91	0x3ddbcad6	0.10732047
92	0xbdf4fd9e	-0.11962436
93	0xbcd5a838	-0.02608119
94	0x3debac6c	0.11507496
95	0x3dfd9f68	0.1238392
96	0x3d265944	0.040612474
97	0xbdb14716	-0.08656137
98	0xbc70ce80	-0.014697671
99	0x3ded10d6	0.11575477
100	0x3dc19506	0.09452252
101	0x3ddccbce	0.1078106
102	0xbdd49220	-0.10379434
103	0x3da16582	0.07880689
104	0x3ccfdb70	0.02537319
105	0x3b342840	0.0027489811
106	0x3c948b50	0.018132836
107	0xbc85e330	-0.016343683
108	0xb95cc400	-0.0002105385
109	0x3c455340	0.012043774
110	0x3da28128	0.07934791
111	0x3d87d49a	0.066323474
112	0xbdc69cda	-0.09697886
113	0x3dbc21de	0.09186147
114	0xbd637670	-0.055532873
115	0xbd8d2820	-0.06892419
116	0xbcc00278	-0.023438677
117	0xbddfd2d4	-0.10928884
118	0xbde40cee	-0.11135279
119	0x3d810b34	0.06300965
120	0x3ce8b1c0	0.02840507
121	0xbde9d4de	-0.11417554
122	0xbdce31bc	-0.1006808
123	0x3d688bb0	0.05677384
124	0x3c9ef0c0	0.019401908
125	0x3d708a54	0.05872567
126	0x3aec3300	0.001802057
127	0xbd9533dc	-0.07285282
128	0x3db34644	0.087536365
129	0xbdce7212	-0.10080351
130	0x3c506110	0.012718454
131	0xbd944c16	-0.07241075
132	0x3dfd1b7c	0.12358758
133	0x3d79d7d4	0.060996845
134	0xbbe747e0	-0.0070581287
135	0x3cdaf9d0	0.026730448
136	0xbd0315d8	-0.032003254
137	0x3de93a06	0.1138802
138	0x3db58a3a	0.08864255
139	0xbc9d4528	-0.019198015
140	0xbd6d9f00	-0.058012962
141	0x3df71dde	0.120662436
142	0xbcd88390	-0.026429921
143	0xbdaae766	-0.08344917
144	0x3cca2898	0.02467756
145	0x3d9468fc	0.07246587
146	0x3dbcb644	0.09214452
147	0xbd44b01c	-0.048019513
148	0xbd79814c	-0.060914323
149	0xbd377340	-0.044787645
150	0x3c95bc38	0.018278226
151	0x3dcd3478	0.10019773
152	0xbc777550	-0.015103653
153	0x3d0172bc	0.03160356
154	0x3cebbff0	0.028778046
155	0x3d326280	0.04355097
156	0xbb16c700	-0.0023006797
157	0xbd1e4ab8	-0.038645476
158	0xbdaaa1dc	-0.083316535
159	0xbd46d7f0	-0.048545778
160	0x3df7df2a	0.12103112
161	0x3d387624	0.045034543
162	0x3c31d900	0.0108549595
163	0xbdbd82ac	-0.09253439
164	0xbd08c5e4	-0.03339185
165	0x3b9d6140	0.004802853
166	0xbd6b6528	-0.057469517
167	0x3dcda53a	0.1004128
168	0xbdf6b68c	-0.12046537
169	0xbcaa3d30	-0.02078113
170	0xbdbee4f8	-0.09321016
171	0xbddde1ba	-0.108340696
172	0xbdbf2f44	-0.09335187
173	0xbd870fec	-0.06594834
174	0x3c4341d0	0.011917546
175	0x3af8df80	0.0018987507
176	0x3dd7e46e	0.105416164
177	0x3dce524a	0.10074289
178	0xbdbb9bdc	-0.09160587
179	0xbdb28bd6	-0.08718078
180	0x3d879c96	0.06621663
181	0x3df0d124	0.117586404
182	0x3d2d7698	0.042349428
183	0xbdc00f7a	-0.09377952
184	0xbc2e0f10	-0.010623708
185	0x3bc440e0	0.005989179
186	0xbd373688	-0.04472974
187	0xbd0da328	-0.034579426
188	0x3d2b2c14	0.041790083
189	0x3df443f6	0.11927025
190	0xbd914ba0	-0.070945024
191	0x3d329784	0.043601528
192	0xbdd8da60	-0.10588527
193	0xbc90dff8	-0.017684922
194	0xbdaa2bcc	-0.08309135
195	0x3cafdafe	0.021466728
196	0xbde381ae	-0.11108719
197	0x3d6cb700	0.05779171
198	0x3dab8024	0.0837405
199	0xbcdf390b	-0.02724888
200	0xbb8384a5	-0.004013615
201	0xbd7f54e1	-0.062336806
202	0xbd24c6b6	-0.040228568
203	0x3d8499bf	0.06474637
204	0x3c3bad88	0.011454947
205	0x3d16dbac	0.03683059
206	0xbcb6c83c	-0.022312276
207	0xbdc57078	-0.09640592
208	0x3dc5b965	0.09654502
209	0xbd00d9a0	-0.031457543
210	0x3cc9144e	0.024545815
211	0xbca3fd78	-0.020018324
212	0x3c073b2e	0.008253856
213	0xbdef8ace	-0.11696397
214	0xbd6ec4a8	-0.058293015
215	0x3bac7f20	0.005264178
216	0x3df542ae	0.11975609
217	0xbc46fd5d	-0.012145367
218	0xbc400d60	-0.011721939
219	0x3d8257b9	0.06364388
220	0x3dc57065	0.09640578
221	0xbddc4970	-0.107561946
222	0x3d93c39c	0.07215044
223	0xbde56eb2	-0.11202754
224	0xbd391a88	-0.045191318
225	0xbd19ec26	-0.037578724
226	0xbd84de33	-0.06487694
227	0xbd7fc9a8	-0.062448174
228	0x3c2385b4	0.009980608
229	0x3d33d350	0.043902695
230	0x3d1293ae	0.03578537
231	0xbd520888	-0.051277667
232	0xbcd18100	-0.025574207
233	0xbe0e77ef	-0.13912939
234	0x3de1182e	0.1099094
235	0x3decf740	0.11570597
236	0x3d407b68	0.04699269
237	0xbde22c8e	-0.110436544
238	0x3d0dd960	0.034631133
239	0xbdbde4bb	-0.092721425
240	0xbcfa4e08	-0.030554786
241	0xbcf7ef10	-0.030265361
242	0x3d7936a4	0.060843125
243	0xbd628383	-0.0553012
244	0x3c917c16	0.017759364
245	0x3d547844	0.051872507
246	0x3dc3ff18	0.0957014
247	0xbd4a91d8	-0.049455494
248	0x3d796d05	0.060894985
249	0xbe3e1009	-0.18560804
250	0x3d919137	0.07107776
251	0x3aba7900	0.0014226735
252	0x3d7d020c	0.06176953
253	0xbdb40a80	-0.08791065
254	0xbd8bec2c	-0.068321556
255	0xb8c98000	-9.608269e-05

fc2.bias f4 [32]
0	0x3df31406	0.118690535
1	0x3c8bda38	0.017071828
2	0x3d98f0de	0.07467817
3	0x3eac62d0	0.33669138
4	0x3dfffcd6	0.124993965
5	0x3f2258d6	0.634168
6	0xbd622124	-0.055207387
7	0xbe892a67	-0.26790163
8	0x3cb5cfa8	0.022193745
9	0xbad3e46a	-0.0016166095
10	0xbd4b75dc	-0.049672946
11	0xbdb43c9e	-0.08800624
12	0x3df3495a	0.11879225
13	0x3f02339a	0.5085999
14	0xbf934ab9	-1.1507179
15	0xbcdef1a0	-0.027214825
16	0xbd4acd64	-0.049512282
17	0xbdaea181	-0.08526898
18	0x3d8e9e6c	0.0696381
19	0xbe2be8c8	-0.16788018
20	0xbdbae8d2	-0.09126438
21	0x3d9b6e24	0.07589367
22	0x3e75c612	0.24001339
23	0xbdf4105e	-0.11917184
24	0x3ed89a25	0.42305103
25	0x3ea5da51	0.32393125
26	0x3f49ddea	0.7885424
27	0xbddd565e	-0.10807489
28	0x3de1823e	0.1101117
29	0xbdf15940	-0.11784601
30	0xbf465098	-0.77466726
31	0xbf6e8d2f	-0.9318418

fc3.weight f4 [16, 32]
0	0x3d5d41b2	0.05401773
1	0x3d8e324a	0.069431856
2	0xbe2c551b	-0.1682934
3	0xbdfac9d0	-0.12245524
4	0x3de68d1e	0.11257385
5	0xbdecddba	-0.115657285
6	0xbd8e2973	-0.069414996
7	0xbd41be13	-0.04730041
8	0x3da265be	0.07929562
9	0x3da4361a	0.080181316
10	0x3e303b93	0.17210226
11	0x3e16af77	0.14715372
12	0x3d1d7e20	0.03845036
13	0xbdfaa14c	-0.12237796
14	0xbe042b05	-0.12907036
15	0xbd127eb0	-0.03576535
16	0xbbbb9c40	-0.0057254136
17	0xbdcb8420	-0.0993731
18	0x3dbb5d1a	0.09148617
19	0xbdf284e0	-0.1184175
20	0x3da10d92	0.078639165
21	0x3e16a8f5	0.1471289
22	0xbd57f5b2	-0.052724548
23	0xbc8b6e88	-0.017020479
24	0xbdca10e6	-0.09866504
25	0xbc69b14b	-0.014263461
26	0xbd292ebc	-0.041304335
27	0xbde2d5e2	-0.11075951
28	0xbdfa7aea	-0.12230475
29	0xbc7022d0	-0.014656737
30	0x3e09544f	0.13411067
31	0x3df6c366	0.12048988
32	0x3dd4b9a3	0.1038697
33	0x3e2a7913	0.16647749
34	0xbdafc5e9	-0.0858267
35	0xbc7b0084	-0.015319947
36	0x3e25fe95	0.16210397
37	0xbd26db89	-0.04073671
38	0xbde6d59c	-0.112712115
39	0xbc22fb64	-0.0099476315
40	0x3debb902	0.11509897
41	0x3dc6fc2f	0.09716069
42	0xbce571d8	-0.028008386
43	0xbd0b5b70	-0.03402275
44	0x3df55462	0.11978985
45	0x3d16ac64	0.0367855
46	0xbdc41f64	-0.095763
47	0xbdcfb1ab	-0.10141309
48	0xbe039238	-0.12848747
49	0xbd136ce4	-0.035992518
50	0x3dfa5afa	0.12224384
51	0x3e2860d5	0.16443188
52	0xbd1e39dc	-0.038629398
53	0xbc390c10	-0.01129438
54	0x3cb9e3f5	0.022691706
55	0xbe0a28d6	-0.1349214
56	0xbdc434cc	-0.09580383
57	0xbe11c50f	-0.14235328
58	0x3daba26a	0.083805874
59	0xbdefe918	-0.11714381
60	0xbe0091d5	-0.1255563
61	0xbd77ba06	-0.06048014
62	0xbdb1c517	-0.0868017
63	0xbae04c12	-0.0017112514
64	0x3d00efc4	0.03147866
65	0xbd72a678	-0.05924079
66	0xbd3f80d0	-0.046753705
67	0x3cd11ed1	0.02552739
68	0x3e2386c9	0.15969385
69	0x3e0cd957	0.13754784
70	0xbcb061e8	-0.02153106
71	0x3d26681d	0.040626634
72	0xbd81f702	-0.06345941
73	0xbc1f00ad	-0.009704751
74	0xbdb08071	-0.08618248
75	0xbe0be119	-0.13660087
76	0xbdfd7f98	-0.12377852
77	0x3bee58e2	0.0072737793
78	0x3d65ac69	0.056072626
79	0xbd5d193e	-0.05397915
80	0x3de360f2	0.11102475
81	0xbd94972b	-0.072553955
82	0x3d9760fa	0.07391544
83	0xbe08c4da	-0.13356343
84	0xbd81d500	-0.06339455
85	0x3dbd1936	0.09233324
86	0x3c98fb93	0.018674647
87	0xbdc1afcf	-0.09457361
88	0xbd141afe	-0.036158554
89	0xbcd5b8ed	-0.026089156
90	0xbe108710	-0.14114022
91	0xbdbbc869	-0.091690846
92	0x3e182e6d	0.1486146
93	0x3df589da	0.11989184
94	0x3d94f699	0.07273597
95	0x3cc7115a	0.024300266
96	0x3e2e086f	0.16995405
97	0xbcf9b0f0	-0.030479878
98	0x3e112eb3	0.1417797
99	0x3ca64e14	0.020300902
100	0xbc385cc0	-0.011252582
101	0xbdb52a8c	-0.08846006
102	0x3db029b6	0.08601706
103	0xbd1b0275	-0.03784414
104	0x3dba252e	0.09089123
105	0x3db2fef3	0.08740034
106	0x3d4752b8	0.04866287
107	0xbdde0571	-0.108408816
108	0xbd9cdaea	-0.07658942
109	0x3d7bd25b	0.061479907
110	0xbd3e8007	-0.046508815
111	0xbe19fa86	-0.15036973
112	0xbcdee2c0	-0.027207732
113	0x3d87562f	0.06608235
114	0x3d9b795a	0.07591505
115	0xbd087adc	-0.033320293
116	0xbe33910b	-0.17535798
117	0x3dc45f36	0.095884725
118	0x3d5bde21	0.053678636
119	0x3e213aef	0.15745138
120	0x3db77ad1	0.08958972
121	0x3dc9c643	0.098522685
122	0x3d5d8079	0.0540776
123	0xbe27394f	-0.16330455
124	0xbbeb4500	-0.0071798563
125	0x3dda472a	0.10658105
126	0xbdd7cf21	-0.105375536
127	0x3df07ba7	0.11742335
128	0xbe392767	-0.18081437
129	0xbe26dfa0	-0.16296244
130	0xbe26dd2c	-0.16295308
131	0x3e1a8371	0.15089203
132	0xbde4af3f	-0.11166238
133	0x3d86082e	0.06544529
134	0xbe34c10a	-0.17651764
135	0xbe5690da	-0.20953694
136	0xbe2c74cb	-0.16841428
137	0x3c13dec7	0.009025282
138	0xbd968678	-0.07349867
139	0x3e02e13f	0.12781237
140	0x3df1c89e	0.11805843
141	0x3e01048b	0.1259939
142	0x3dc95d93	0.09832301
143	0x3dc1d506	0.09464459
144	0x3e2fbc19	0.17161597
145	0xbc220808	-0.00988961
146	0x3d8d43ae	0.068976745
147	0x3b95321e	0.0045530936
148	0x3dc1c95e	0.09462236
149	0x3d985e8e	0.0743991
150	0x3cb0976a	0.021556575
151	0x3d8373da	0.06418581
152	0x3d947e6d	0.07250676
153	0xbd3c3adf	-0.04595458
154	0xbdf9ef58	-0.12203854
155	0x3d6bea68	0.057596594
156	0xbd35bc50	-0.044369042
157	0x3e1a8997	0.15091549
158	0xbd1d3ee5	-0.03839006
159	0x3dc1ef2d	0.09469447
160	0xbd355a26	-0.044275425
161	0x3de817d6	0.11332671
162	0xbd381c88	-0.044949085
163	0xbe1b6be2	-0.15177873
164	0x3cc170a0	0.023613274
165	0xbd501e9c	-0.05081044
166	0xbdb4f45b	-0.088356696
167	0x3dcb7dee	0.099361286
168	0x3e0fc867	0.14041291
169	0x3dbb780c	0.091537565
170	0x3da40402	0.08008577
171	0x3df2c4ba	0.11853929
172	0xbe245dce	-0.16051409
173	0x3e1e2ec9	0.15447535
174	0x3df9e7d2	0.12202419
175	0x3d5e7a28	0.054315716
176	0x3e14a1cf	0.1451485
177	0xbdaa3a1c	-0.08311865
178	0xbd5582c8	-0.052126676
179	0xbe066809	-0.13125624
180	0x3da9a4b2	0.08283366
181	0xbe25c74a	-0.16189304
182	0x3b9f2119	0.0048562405
183	0xbe26d0aa	-0.16290537
184	0x3db26495	0.08710591
185	0x3d83f927	0.064440064
186	0xbe1de5d4	-0.15419704
187	0x3d02fe90	0.03198105
188	0xbd224b30	-0.039622486
189	0x3e0f8c0b	0.14018266
190	0xbd7829f0	-0.06058687
191	0xbcb657ae	-0.022258606
192	0xbde2b3cf	-0.11069452
193	0xbe22401f	-0.15844773
194	0xbcbe49d0	-0.023228556
195	0xbe07bb42	-0.13255027
196	0xbe03646f	-0.12831281
197	0xbb36e300	-0.0027906299
198	0x3df8a05e	0.121399626
199	0x3c857090	0.016289026
200	0xbd8a13bd	-0.06742046
201	0x3dac6d9a	0.08419342
202	0x3def5d3e	0.116877064
203	0xbdac8f4d	-0.0842577
204	0xbd608d8c	-0.05482249
205	0xbdbb4604	-0.09144214
206	0xbc3cf6c0	-0.011533439
207	0x3cc9d588	0.024637952
208	0x3d3ad408	0.045612365
209	0x3bb744e0	0.0055929273
210	0xbdde46fe	-0.108533844
211	0x3daf080e	0.08546458
212	0xbcb0d048	-0.021583691
213	0xbd395504	-0.045247093
214	0xbe13566b	-0.14388435
215	0xbe153212	-0.14569882
216	0xbe18fba1	-0.14939739
217	0x3e255e25	0.16149195
218	0x3c41bc60	0.011824697
219	0x3dc0175a	0.09379454
220	0x3d43f1d4	0.047838047
221	0x3d932602	0.07184984
222	0x3ce62a00	0.028096199
223	0x3d8fa8fc	0.07014653
224	0x3e2f7b5a	0.17136899
225	0xbd8874b0	-0.066628814
226	0xbdabea4e	-0.083942994
227	0xbd277346	-0.040881418
228	0xbd882282	-0.06647207
229	0x3e2148d4	0.15750438
230	0xbdc5566a	-0.09635623
231	0xbdfc4e64	-0.12319639
232	0xbdcf1c29	-0.10112793
233	0xbce6f27c	-0.028191797
234	0xbcf92d38	-0.03041707
235	0x3d934f38	0.07192844
236	0x3d80ea9e	0.0629475
237	0x3dd0b10a	0.101900175
238	0xbd507a8d	-0.050898124
239	0x3e1da697	0.1539558
240	0xbe005026	-0.12530574
241	0xbde090e4	-0.10965136
242	0xbcf06e48	-0.029349461
243	0xbcad57bf	-0.021160005
244	0x3e07a71b	0.1324734
245	0xbe1dcf50	-0.15411115
246	0xbd3347d5	-0.043769676
247	0xbc3bcd30	-0.011462495
248	0x3e0a4fa6	0.13506946
249	0x3ddcd7a2	0.10783316
250	0xbd36cca4	-0.044628754
251	0x3db3a832	0.08772315
252	0x3e1ff68b	0.15621392
253	0xbcd7eb80	-0.026357412
254	0xbe00f5a3	-0.12593703
255	0x3d6c9b35	0.057765204

fc3.bias f4 [16]
0	0xbe1c03c0	-0.15235806
1	0x3e87f89f	0.2655687
2	0xbea19c4c	-0.31564558
3	0x3f045d5a	0.51704943
4	0x3f3f7f33	0.74803466
5	0x3db59629	0.088665314
6	0xbe275a73	-0.16343097
7	0x3ebd6c95	0.36996904
8	0xbe530479	-0.20607175
9	0xbf27cc8d	-0.65546495
10	0xbeb14441	-0.34622386
11	0xbf29ab7b	-0.66277283
12	0x4014056a	2.3128304
13	0x3f8d0fe2	1.1020472
14	0x3c517c80	0.012786031
15	0xbdd66c4b	-0.10469874

fc4.weight f4 [8, 16]
0	0xbda28d8c	-0.07937154
1	0xbd934e0c	-0.07192621
2	0xbe669096	-0.22516093
3	0xbcbd6590	-0.023119718
4	0xbccdb440	-0.025110364
5	0xbba517c0	-0.0050382316
6	0xbb67a700	-0.0035347342
7	0x3d700388	0.058597118
8	0xbe71c99c	-0.23612064
9	0xbdc480b4	-0.09594861
10	0x3bae1700	0.0053128004
11	0xbd8a42a4	-0.06750992
12	0xbe102802	-0.14077762
13	0xbd63ab40	-0.05558324
14	0xbe41b11c	-0.18915218
15	0xbda20158	-0.079104125
16	0x3e65666c	0.22402352
17	0x3d236938	0.039895266
18	0xbe465e40	-0.19371891
19	0xbdd7f8ec	-0.10545525
20	0xbe6da7d0	-0.23208547
21	0x3c031d20	0.008002549
22	0x3e7b02a4	0.24512726
23	0xbe4f473e	-0.2024202
24	0xbe5e9810	-0.21737695
25	0xbda9e9b4	-0.082965285
26	0x3e2384f4	0.15968686
27	0xbe698c1c	-0.22807354
28	0xbd53ad28	-0.051678807
29	0xbd4ac908	-0.049508125
30	0xbe663e20	-0.22484636
31	0x3e547780	0.2074871
32	0x3db53439	0.08847851
33	0xbe33f6e9	-0.17574657
34	0xbe508585	-0.20363434
35	0x3e59bbbc	0.21263021
36	0x3e16a3c0	0.14710903
37	0x3d4e7f14	0.05041416
38	0x3e257778	0.16158855
39	0x3e0c400b	0.13696305
40	0x3e519ed7	0.20470749
41	0xbda48461	-0.08033062
42	0xbd164441	-0.036686186
43	0xbdceed57	-0.10103863
44	0xbe052574	-0.13002568
45	0x3dec9745	0.1155229
46	0x3e52a08a	0.20569053
47	0xbe4dff41	-0.20116903
48	0x3e0a5400	0.13508606
49	0x3b85944b	0.004076516
50	0x3cdfcaa1	0.0273183
51	0xbe0c604a	-0.13708606
52	0x3dcbf236	0.099583074
53	0xbe3a983e	-0.18222138
54	0x3df4d198	0.11954039
55	0xbd1f2aa9	-0.038859043
56	0x3e1a3a02	0.1506119
57	0x3c5e8721	0.013582022
58	0x3d8d08ee	0.06886469
59	0xbd719454	-0.058979347
60	0xbdfcb099	-0.12338371
61	0xbd36ccf1	-0.04462904
62	0xbe1d1170	-0.15338683
63	0x3e504d4c	0.20341986
64	0x3e2817e1	0.16415359
65	0x3e630825	0.22171076
66	0xbe1f8bd3	-0.15580682
67	0x3dbe8682	0.09302999
68	0x3e1e506d	0.15460368
69	0xbe14d7af	-0.14535402
70	0x3cf3a190	0.029740125
71	0xbd998650	-0.07496321
72	0xbe6a917b	-0.22907059
73	0x3dfbbb9a	0.122916415
74	0x3e59981d	0.21249433
75	0xbe1c83a8	-0.15284598
76	0x3dba17a1	0.09086538
77	0xbe8c960b	-0.27458224
78	0xbe48a864	-0.19595486
79	0x3d5e3708	0.0542517
80	0xbdb12c60	-0.08651042
81	0x3de16618	0.11005801
82	0x3e73e234	0.23816758
83	0xbd0a0678	-0.033697575
84	0x3e1052ba	0.14094058
85	0xbd46c2e8	-0.04852572
86	0xbde6a178	-0.112612665
87	0x3e0a9600	0.13533783
88	0xbe528b50	-0.20560956
89	0x3e13a736	0.14419255
90	0xbe44f9de	-0.19235942
91	0x3ba38140	0.004989773
92	0x3e0aee46	0.13567457
93	0xbdf2e6fc	-0.11860463
94	0xbe49aeae	-0.19695541
95	0xbe7578f4	-0.23971921
96	0x3e21f91e	0.15817687
97	0x3e432b57	0.19059502
98	0xbd46303e	-0.04838585
99	0x3e72caac	0.23710126
100	0x3d258802	0.04041291
101	0xbe7816b3	-0.24227409
102	0xbe2c56de	-0.16830012
103	0x3e543cc2	0.20726302
104	0xbd9e8467	-0.077400975
105	0xbe8066a9	-0.25078323
106	0xbda7e36f	-0.081976764
107	0xbcd938f0	-0.026516408
108	0x3e81ad1d	0.25327387
109	0x3f4f4de9	0.80978256
110	0x3e551d5e	0.20811984
111	0x3e01f762	0.12692025
112	0xbca0ccb0	-0.019628853
113	0x3c545860	0.012960523
114	0x3c335fa0	0.010948092
115	0xbe56a7f8	-0.20962512
116	0xbe6ecff4	-0.23321515
117	0xbe4cb222	-0.19989827
118	0xbe3b1bb0	-0.1827228
119	0x3df19fa8	0.1179803
120	0x3ca15dd0	0.019698054
121	0xbafae400	-0.0019141436
122	0xbd4a7090	-0.049423754
123	0xbe41ead0	-0.1893723
124	0xbd75cf88	-0.06001237
125	0x3e104ee8	0.140926
126	0x3e6e0b8e	0.23246595
127	0x3d85e9cc	0.06538734

fc4.bias f4 [8]
0	0xbdae6ba0	-0.085166216
1	0x3e175458	0.14778268
2	0xbca70b32	-0.02039108
3	0xbee0fb2e	-0.43941635
4	0x3d0fe412	0.035129614
5	0x3e073a42	0.13205817
6	0x3fc3f444	1.5308919
7	0xbde4b9a4	-0.11168221

fc5.weight f4 [1, 8]
0	0xbe2249a9	-0.15848412
1	0xbea9c8b3	-0.33160934
2	0x3e3a3c3f	0.18187045
3	0xbe406573	-0.187887
4	0xbd755b28	-0.059901386
5	0xbe1ceed6	-0.15325484
6	0x3eabf8f5	0.33588377
7	0xbdabcb2c	-0.08388361
